DynamicGNN(
  (encoder): FeatureEncoder()
  (pre_mp): GeneralMultiLayer(
    (Layer_0): GeneralLayer(
      (layer): Linear(
        (model): Linear(in_features=767, out_features=64, bias=False)
      )
      (post_layer): Sequential(
        (0): BatchNorm1d(64, eps=1e-05, momentum=0.1, affine=True, track_running_stats=True)
        (1): Dropout(p=0.5, inplace=False)
        (2): ReLU()
      )
    )
  )
  (depth_controller): GeneralMultiLayer(
    (Layer_0): GeneralLayer(
      (layer): Linear(
        (model): Linear(in_features=64, out_features=2, bias=False)
      )
      (post_layer): Sequential(
        (0): BatchNorm1d(2, eps=1e-05, momentum=0.1, affine=True, track_running_stats=True)
        (1): Dropout(p=0.5, inplace=False)
        (2): ReLU()
      )
    )
  )
  (aggr_controller): GeneralMultiLayer(
    (Layer_0): GeneralLayer(
      (layer): Linear(
        (model): Linear(in_features=64, out_features=2, bias=False)
      )
      (post_layer): Sequential(
        (0): BatchNorm1d(2, eps=1e-05, momentum=0.1, affine=True, track_running_stats=True)
        (1): Dropout(p=0.5, inplace=False)
        (2): ReLU()
      )
    )
  )
  (convs): ModuleList(
    (0): GeneralLayer(
      (layer): MixAggrConv(
        (model): MixAggrConvLayer(64, 64)
      )
      (post_layer): Sequential(
        (0): BatchNorm1d(64, eps=1e-05, momentum=0.1, affine=True, track_running_stats=True)
        (1): Dropout(p=0.5, inplace=False)
        (2): ReLU()
      )
    )
    (1): GeneralLayer(
      (layer): MixAggrConv(
        (model): MixAggrConvLayer(64, 64)
      )
      (post_layer): Sequential(
        (0): BatchNorm1d(64, eps=1e-05, momentum=0.1, affine=True, track_running_stats=True)
        (1): Dropout(p=0.5, inplace=False)
        (2): ReLU()
      )
    )
    (2): GeneralLayer(
      (layer): MixAggrConv(
        (model): MixAggrConvLayer(64, 64)
      )
      (post_layer): Sequential(
        (0): BatchNorm1d(64, eps=1e-05, momentum=0.1, affine=True, track_running_stats=True)
        (1): Dropout(p=0.5, inplace=False)
        (2): ReLU()
      )
    )
  )
  (post_mp): GNNNodeHead(
    (layer_post_mp): MLP(
      (model): Sequential(
        (0): Linear(
          (model): Linear(in_features=64, out_features=10, bias=True)
        )
      )
    )
  )
)
bn:
  eps: 1e-05
  mom: 0.1
cfg_dest: config.yaml
dataset:
  augment_feature: []
  augment_feature_dims: []
  augment_feature_repr: original
  augment_label: 
  augment_label_dims: 0
  cache_load: False
  cache_save: False
  dir: ./datasets
  edge_dim: 128
  edge_encoder: False
  edge_encoder_bn: True
  edge_encoder_name: Bond
…
